[UNet2DConditionModel(
  (conv_in): Conv2d(4, 320, kernel_size=(3, 3), stride=(1, 1), padding=(1, 1))
  (time_proj): Timesteps()
  (time_embedding): TimestepEmbedding(
    (linear_1): LoRACompatibleLinear(in_features=320, out_features=1280, bias=True)
    (act): SiLU()
    (linear_2): LoRACompatibleLinear(in_features=1280, out_features=1280, bias=True)
  )
  (down_blocks): ModuleList(
    (0): CrossAttnDownBlock2D(
      (attentions): ModuleList(
        (0-1): 2 x Transformer2DModel(
          (norm): GroupNorm(32, 320, eps=1e-06, affine=True)
          (proj_in): LoRACompatibleLinear(in_features=320, out_features=320, bias=True)
          (transformer_blocks): ModuleList(
            (0): BasicTransformerBlock(
              (norm1): LayerNorm((320,), eps=1e-05, elementwise_affine=True)
              (attn1): Attention(
                (to_q): LoRACompatibleLinear(
                  in_features=320, out_features=320, bias=False
                  (lora_layer): LoRALinearLayer(
                    (down): Linear(in_features=320, out_features=4, bias=False)
                    (up): Linear(in_features=4, out_features=320, bias=False)
                  )
                )
                (to_k): LoRACompatibleLinear(
                  in_features=320, out_features=320, bias=False
                  (lora_layer): LoRALinearLayer(
                    (down): Linear(in_features=320, out_features=4, bias=False)
                    (up): Linear(in_features=4, out_features=320, bias=False)
                  )
                )
                (to_v): LoRACompatibleLinear(
                  in_features=320, out_features=320, bias=False
                  (lora_layer): LoRALinearLayer(
                    (down): Linear(in_features=320, out_features=4, bias=False)
                    (up): Linear(in_features=4, out_features=320, bias=False)
                  )
                )
                (to_out): ModuleList(
                  (0): LoRACompatibleLinear(
                    in_features=320, out_features=320, bias=True
                    (lora_layer): LoRALinearLayer(
                      (down): Linear(in_features=320, out_features=4, bias=False)
                      (up): Linear(in_features=4, out_features=320, bias=False)
                    )
                  )
                  (1): Dropout(p=0.0, inplace=False)
                )
              )
              (norm2): LayerNorm((320,), eps=1e-05, elementwise_affine=True)
              (attn2): Attention(
                (to_q): LoRACompatibleLinear(
                  in_features=320, out_features=320, bias=False
                  (lora_layer): LoRALinearLayer(
                    (down): Linear(in_features=320, out_features=4, bias=False)
                    (up): Linear(in_features=4, out_features=320, bias=False)
                  )
                )
                (to_k): LoRACompatibleLinear(
                  in_features=1024, out_features=320, bias=False
                  (lora_layer): LoRALinearLayer(
                    (down): Linear(in_features=1024, out_features=4, bias=False)
                    (up): Linear(in_features=4, out_features=320, bias=False)
                  )
                )
                (to_v): LoRACompatibleLinear(
                  in_features=1024, out_features=320, bias=False
                  (lora_layer): LoRALinearLayer(
                    (down): Linear(in_features=1024, out_features=4, bias=False)
                    (up): Linear(in_features=4, out_features=320, bias=False)
                  )
                )
                (to_out): ModuleList(
                  (0): LoRACompatibleLinear(
                    in_features=320, out_features=320, bias=True
                    (lora_layer): LoRALinearLayer(
                      (down): Linear(in_features=320, out_features=4, bias=False)
                      (up): Linear(in_features=4, out_features=320, bias=False)
                    )
                  )
                  (1): Dropout(p=0.0, inplace=False)
                )
              )
              (norm3): LayerNorm((320,), eps=1e-05, elementwise_affine=True)
              (ff): FeedForward(
                (net): ModuleList(
                  (0): GEGLU(
                    (proj): LoRACompatibleLinear(in_features=320, out_features=2560, bias=True)
                  )
                  (1): Dropout(p=0.0, inplace=False)
                  (2): LoRACompatibleLinear(in_features=1280, out_features=320, bias=True)
…
          (conv2): LoRACompatibleConv(320, 320, kernel_size=(3, 3), stride=(1, 1), padding=(1, 1))
          (nonlinearity): SiLU()
        )
      )
      (downsamplers): ModuleList(
        (0): Downsample2D(
          (conv): LoRACompatibleConv(320, 320, kernel_size=(3, 3), stride=(2, 2), padding=(1, 1))
        )
      )
    )
    (1): CrossAttnDownBlock2D(
      (attentions): ModuleList(
        (0-1): 2 x Transformer2DModel(
          (norm): GroupNorm(32, 640, eps=1e-06, affine=True)
          (proj_in): LoRACompatibleLinear(in_features=640, out_features=640, bias=True)
          (transformer_blocks): ModuleList(
            (0): BasicTransformerBlock(
              (norm1): LayerNorm((640,), eps=1e-05, elementwise_affine=True)
              (attn1): Attention(
                (to_q): LoRACompatibleLinear(
                  in_features=640, out_features=640, bias=False
                  (lora_layer): LoRALinearLayer(
                    (down): Linear(in_features=640, out_features=4, bias=False)
                    (up): Linear(in_features=4, out_features=640, bias=False)
                  )
                )
                (to_k): LoRACompatibleLinear(
                  in_features=640, out_features=640, bias=False
                  (lora_layer): LoRALinearLayer(
                    (down): Linear(in_features=640, out_features=4, bias=False)
                    (up): Linear(in_features=4, out_features=640, bias=False)
                  )
                )
                (to_v): LoRACompatibleLinear(
                  in_features=640, out_features=640, bias=False
                  (lora_layer): LoRALinearLayer(
                    (down): Linear(in_features=640, out_features=4, bias=False)
                    (up): Linear(in_features=4, out_features=640, bias=False)
                  )
                )
                (to_out): ModuleList(
                  (0): LoRACompatibleLinear(
                    in_features=640, out_features=640, bias=True
                    (lora_layer): LoRALinearLayer(
                      (down): Linear(in_features=640, out_features=4, bias=False)
                      (up): Linear(in_features=4, out_features=640, bias=False)
                    )
                  )
                  (1): Dropout(p=0.0, inplace=False)
                )
              )
              (norm2): LayerNorm((640,), eps=1e-05, elementwise_affine=True)
              (attn2): Attention(
                (to_q): LoRACompatibleLinear(
                  in_features=640, out_features=640, bias=False
                  (lora_layer): LoRALinearLayer(
                    (down): Linear(in_features=640, out_features=4, bias=False)
                    (up): Linear(in_features=4, out_features=640, bias=False)
                  )
                )
                (to_k): LoRACompatibleLinear(
                  in_features=1024, out_features=640, bias=False
                  (lora_layer): LoRALinearLayer(
                    (down): Linear(in_features=1024, out_features=4, bias=False)
                    (up): Linear(in_features=4, out_features=640, bias=False)
                  )
                )
                (to_v): LoRACompatibleLinear(
                  in_features=1024, out_features=640, bias=False
                  (lora_layer): LoRALinearLayer(
                    (down): Linear(in_features=1024, out_features=4, bias=False)
                    (up): Linear(in_features=4, out_features=640, bias=False)
                  )
                )
                (to_out): ModuleList(
                  (0): LoRACompatibleLinear(
                    in_features=640, out_features=640, bias=True
                    (lora_layer): LoRALinearLayer(
                      (down): Linear(in_features=640, out_features=4, bias=False)
                      (up): Linear(in_features=4, out_features=640, bias=False)
                    )
                  )
                  (1): Dropout(p=0.0, inplace=False)
                )
              )
              (norm3): LayerNorm((640,), eps=1e-05, elementwise_affine=True)
              (ff): FeedForward(
                (net): ModuleList(
                  (0): GEGLU(
                    (proj): LoRACompatibleLinear(in_features=640, out_features=5120, bias=True)
                  )
                  (1): Dropout(p=0.0, inplace=False)
                  (2): LoRACompatibleLinear(in_features=2560, out_features=640, bias=True)
…
          (conv2): LoRACompatibleConv(640, 640, kernel_size=(3, 3), stride=(1, 1), padding=(1, 1))
          (nonlinearity): SiLU()
        )
      )
      (downsamplers): ModuleList(
        (0): Downsample2D(
          (conv): LoRACompatibleConv(640, 640, kernel_size=(3, 3), stride=(2, 2), padding=(1, 1))
        )
      )
    )
    (2): CrossAttnDownBlock2D(
      (attentions): ModuleList(
        (0-1): 2 x Transformer2DModel(
          (norm): GroupNorm(32, 1280, eps=1e-06, affine=True)
          (proj_in): LoRACompatibleLinear(in_features=1280, out_features=1280, bias=True)
          (transformer_blocks): ModuleList(
            (0): BasicTransformerBlock(
              (norm1): LayerNorm((1280,), eps=1e-05, elementwise_affine=True)
              (attn1): Attention(
                (to_q): LoRACompatibleLinear(
                  in_features=1280, out_features=1280, bias=False
                  (lora_layer): LoRALinearLayer(
                    (down): Linear(in_features=1280, out_features=4, bias=False)
                    (up): Linear(in_features=4, out_features=1280, bias=False)
                  )
                )
                (to_k): LoRACompatibleLinear(
                  in_features=1280, out_features=1280, bias=False
                  (lora_layer): LoRALinearLayer(
                    (down): Linear(in_features=1280, out_features=4, bias=False)
                    (up): Linear(in_features=4, out_features=1280, bias=False)
                  )
                )
                (to_v): LoRACompatibleLinear(
                  in_features=1280, out_features=1280, bias=False
                  (lora_layer): LoRALinearLayer(
                    (down): Linear(in_features=1280, out_features=4, bias=False)
                    (up): Linear(in_features=4, out_features=1280, bias=False)
                  )
                )
                (to_out): ModuleList(
                  (0): LoRACompatibleLinear(
                    in_features=1280, out_features=1280, bias=True
                    (lora_layer): LoRALinearLayer(
                      (down): Linear(in_features=1280, out_features=4, bias=False)
                      (up): Linear(in_features=4, out_features=1280, bias=False)
                    )
                  )
                  (1): Dropout(p=0.0, inplace=False)
                )
              )
              (norm2): LayerNorm((1280,), eps=1e-05, elementwise_affine=True)
              (attn2): Attention(
                (to_q): LoRACompatibleLinear(
                  in_features=1280, out_features=1280, bias=False
                  (lora_layer): LoRALinearLayer(
                    (down): Linear(in_features=1280, out_features=4, bias=False)
                    (up): Linear(in_features=4, out_features=1280, bias=False)
                  )
                )
                (to_k): LoRACompatibleLinear(
                  in_features=1024, out_features=1280, bias=False
                  (lora_layer): LoRALinearLayer(
                    (down): Linear(in_features=1024, out_features=4, bias=False)
                    (up): Linear(in_features=4, out_features=1280, bias=False)
                  )
                )
                (to_v): LoRACompatibleLinear(
                  in_features=1024, out_features=1280, bias=False
                  (lora_layer): LoRALinearLayer(
                    (down): Linear(in_features=1024, out_features=4, bias=False)
                    (up): Linear(in_features=4, out_features=1280, bias=False)
                  )
                )
                (to_out): ModuleList(
                  (0): LoRACompatibleLinear(
                    in_features=1280, out_features=1280, bias=True
                    (lora_layer): LoRALinearLayer(
                      (down): Linear(in_features=1280, out_features=4, bias=False)
                      (up): Linear(in_features=4, out_features=1280, bias=False)
                    )
                  )
                  (1): Dropout(p=0.0, inplace=False)
                )
              )
              (norm3): LayerNorm((1280,), eps=1e-05, elementwise_affine=True)
              (ff): FeedForward(
                (net): ModuleList(
                  (0): GEGLU(
                    (proj): LoRACompatibleLinear(in_features=1280, out_features=10240, bias=True)
                  )
                  (1): Dropout(p=0.0, inplace=False)
                  (2): LoRACompatibleLinear(in_features=5120, out_features=1280, bias=True)
…
          (conv_shortcut): LoRACompatibleConv(960, 640, kernel_size=(1, 1), stride=(1, 1))
        )
      )
      (upsamplers): ModuleList(
        (0): Upsample2D(
          (conv): LoRACompatibleConv(640, 640, kernel_size=(3, 3), stride=(1, 1), padding=(1, 1))
        )
      )
    )
    (3): CrossAttnUpBlock2D(
      (attentions): ModuleList(
        (0-2): 3 x Transformer2DModel(
          (norm): GroupNorm(32, 320, eps=1e-06, affine=True)
          (proj_in): LoRACompatibleLinear(in_features=320, out_features=320, bias=True)
          (transformer_blocks): ModuleList(
            (0): BasicTransformerBlock(
              (norm1): LayerNorm((320,), eps=1e-05, elementwise_affine=True)
              (attn1): Attention(
                (to_q): LoRACompatibleLinear(
                  in_features=320, out_features=320, bias=False
                  (lora_layer): LoRALinearLayer(
                    (down): Linear(in_features=320, out_features=4, bias=False)
                    (up): Linear(in_features=4, out_features=320, bias=False)
                  )
                )
                (to_k): LoRACompatibleLinear(
                  in_features=320, out_features=320, bias=False
                  (lora_layer): LoRALinearLayer(
                    (down): Linear(in_features=320, out_features=4, bias=False)
                    (up): Linear(in_features=4, out_features=320, bias=False)
                  )
                )
                (to_v): LoRACompatibleLinear(
                  in_features=320, out_features=320, bias=False
                  (lora_layer): LoRALinearLayer(
                    (down): Linear(in_features=320, out_features=4, bias=False)
                    (up): Linear(in_features=4, out_features=320, bias=False)
                  )
                )
                (to_out): ModuleList(
                  (0): LoRACompatibleLinear(
                    in_features=320, out_features=320, bias=True
                    (lora_layer): LoRALinearLayer(
                      (down): Linear(in_features=320, out_features=4, bias=False)
                      (up): Linear(in_features=4, out_features=320, bias=False)
                    )
                  )
                  (1): Dropout(p=0.0, inplace=False)
                )
              )
              (norm2): LayerNorm((320,), eps=1e-05, elementwise_affine=True)
              (attn2): Attention(
                (to_q): LoRACompatibleLinear(
                  in_features=320, out_features=320, bias=False
                  (lora_layer): LoRALinearLayer(
                    (down): Linear(in_features=320, out_features=4, bias=False)
                    (up): Linear(in_features=4, out_features=320, bias=False)
                  )
                )
                (to_k): LoRACompatibleLinear(
                  in_features=1024, out_features=320, bias=False
                  (lora_layer): LoRALinearLayer(
                    (down): Linear(in_features=1024, out_features=4, bias=False)
                    (up): Linear(in_features=4, out_features=320, bias=False)
                  )
                )
                (to_v): LoRACompatibleLinear(
                  in_features=1024, out_features=320, bias=False
                  (lora_layer): LoRALinearLayer(
                    (down): Linear(in_features=1024, out_features=4, bias=False)
                    (up): Linear(in_features=4, out_features=320, bias=False)
                  )
                )
                (to_out): ModuleList(
                  (0): LoRACompatibleLinear(
                    in_features=320, out_features=320, bias=True
                    (lora_layer): LoRALinearLayer(
                      (down): Linear(in_features=320, out_features=4, bias=False)
                      (up): Linear(in_features=4, out_features=320, bias=False)
                    )
                  )
                  (1): Dropout(p=0.0, inplace=False)
                )
              )
              (norm3): LayerNorm((320,), eps=1e-05, elementwise_affine=True)
              (ff): FeedForward(
                (net): ModuleList(
                  (0): GEGLU(
                    (proj): LoRACompatibleLinear(in_features=320, out_features=2560, bias=True)
                  )
                  (1): Dropout(p=0.0, inplace=False)
                  (2): LoRACompatibleLinear(in_features=1280, out_features=320, bias=True)
…
        (norm1): GroupNorm(32, 1280, eps=1e-05, affine=True)
        (conv1): LoRACompatibleConv(1280, 1280, kernel_size=(3, 3), stride=(1, 1), padding=(1, 1))
        (time_emb_proj): LoRACompatibleLinear(in_features=1280, out_features=1280, bias=True)
        (norm2): GroupNorm(32, 1280, eps=1e-05, affine=True)
        (dropout): Dropout(p=0.0, inplace=False)
        (conv2): LoRACompatibleConv(1280, 1280, kernel_size=(3, 3), stride=(1, 1), padding=(1, 1))
        (nonlinearity): SiLU()
      )
    )
  )
  (conv_norm_out): GroupNorm(32, 320, eps=1e-05, affine=True)
  (conv_act): SiLU()
  (conv_out): Conv2d(320, 4, kernel_size=(3, 3), stride=(1, 1), padding=(1, 1))
), CLIP(
  (visual): VisionTransformer(
    (conv1): Conv2d(3, 1280, kernel_size=(14, 14), stride=(14, 14), bias=False)
    (patch_dropout): Identity()
    (ln_pre): LayerNorm((1280,), eps=1e-05, elementwise_affine=True)
    (transformer): Transformer(
      (resblocks): ModuleList(
        (0-31): 32 x ResidualAttentionBlock(
          (ln_1): LayerNorm((1280,), eps=1e-05, elementwise_affine=True)
          (attn): MultiheadAttention(
            (out_proj): NonDynamicallyQuantizableLinear(in_features=1280, out_features=1280, bias=True)
          )
          (ls_1): Identity()
          (ln_2): LayerNorm((1280,), eps=1e-05, elementwise_affine=True)
          (mlp): Sequential(
            (c_fc): Linear(in_features=1280, out_features=5120, bias=True)
            (gelu): GELU(approximate='none')
            (c_proj): Linear(in_features=5120, out_features=1280, bias=True)
          )
          (ls_2): Identity()
        )
      )
    )
    (ln_post): LayerNorm((1280,), eps=1e-05, elementwise_affine=True)
  )
  (transformer): Transformer(
    (resblocks): ModuleList(
      (0-23): 24 x ResidualAttentionBlock(
        (ln_1): LayerNorm((1024,), eps=1e-05, elementwise_affine=True)
        (attn): MultiheadAttention(
          (out_proj): NonDynamicallyQuantizableLinear(in_features=1024, out_features=1024, bias=True)
        )
        (ls_1): Identity()
        (ln_2): LayerNorm((1024,), eps=1e-05, elementwise_affine=True)
        (mlp): Sequential(
          (c_fc): Linear(in_features=1024, out_features=4096, bias=True)
          (gelu): GELU(approximate='none')
          (c_proj): Linear(in_features=4096, out_features=1024, bias=True)
        )
        (ls_2): Identity()
      )
    )
  )
  (token_embedding): Embedding(49408, 1024)
  (ln_final): LayerNorm((1024,), eps=1e-05, elementwise_affine=True)
), Image_adapter(
  (adapter): Sequential(
    (0): Linear(in_features=1024, out_features=1024, bias=True)
    (1): ReLU()
    (2): Linear(in_features=1024, out_features=1024, bias=True)
  )
  (sigmoid): Sigmoid()
), Blip2Qformer(
  (visual_encoder): VisionTransformer(
    (conv1): Conv2d(3, 1024, kernel_size=(14, 14), stride=(14, 14), bias=False)
    (ln_pre): LayerNorm((1024,), eps=1e-05, elementwise_affine=True)
    (transformer): Transformer(
      (resblocks): Sequential(
        (0): ResidualAttentionBlock(
          (attn): MultiheadAttention(
            (out_proj): NonDynamicallyQuantizableLinear(in_features=1024, out_features=1024, bias=True)
          )
          (ln_1): LayerNorm((1024,), eps=1e-05, elementwise_affine=True)
          (mlp): Sequential(
            (c_fc): Linear(in_features=1024, out_features=4096, bias=True)
            (gelu): QuickGELU()
            (c_proj): Linear(in_features=4096, out_features=1024, bias=True)
          )
          (ln_2): LayerNorm((1024,), eps=1e-05, elementwise_affine=True)
        )
        (1): ResidualAttentionBlock(
          (attn): MultiheadAttention(
            (out_proj): NonDynamicallyQuantizableLinear(in_features=1024, out_features=1024, bias=True)
          )
          (ln_1): LayerNorm((1024,), eps=1e-05, elementwise_affine=True)
          (mlp): Sequential(
            (c_fc): Linear(in_features=1024, out_features=4096, bias=True)
            (gelu): QuickGELU()
            (c_proj): Linear(in_features=4096, out_features=1024, bias=True)
          )
          (ln_2): LayerNorm((1024,), eps=1e-05, elementwise_affine=True)
        )
        (2): ResidualAttentionBlock(
          (attn): MultiheadAttention(
            (out_proj): NonDynamicallyQuantizableLinear(in_features=1024, out_features=1024, bias=True)
          )
          (ln_1): LayerNorm((1024,), eps=1e-05, elementwise_affine=True)
          (mlp): Sequential(
            (c_fc): Linear(in_features=1024, out_features=4096, bias=True)
            (gelu): QuickGELU()
            (c_proj): Linear(in_features=4096, out_features=1024, bias=True)
          )
          (ln_2): LayerNorm((1024,), eps=1e-05, elementwise_affine=True)
        )
        (3): ResidualAttentionBlock(
          (attn): MultiheadAttention(
            (out_proj): NonDynamicallyQuantizableLinear(in_features=1024, out_features=1024, bias=True)
          )
          (ln_1): LayerNorm((1024,), eps=1e-05, elementwise_affine=True)
          (mlp): Sequential(
            (c_fc): Linear(in_features=1024, out_features=4096, bias=True)
            (gelu): QuickGELU()
            (c_proj): Linear(in_features=4096, out_features=1024, bias=True)
          )
          (ln_2): LayerNorm((1024,), eps=1e-05, elementwise_affine=True)
        )
        (4): ResidualAttentionBlock(
          (attn): MultiheadAttention(
            (out_proj): NonDynamicallyQuantizableLinear(in_features=1024, out_features=1024, bias=True)
          )
          (ln_1): LayerNorm((1024,), eps=1e-05, elementwise_affine=True)
          (mlp): Sequential(
            (c_fc): Linear(in_features=1024, out_features=4096, bias=True)
            (gelu): QuickGELU()
            (c_proj): Linear(in_features=4096, out_features=1024, bias=True)
          )
          (ln_2): LayerNorm((1024,), eps=1e-05, elementwise_affine=True)
        )
        (5): ResidualAttentionBlock(
          (attn): MultiheadAttention(
            (out_proj): NonDynamicallyQuantizableLinear(in_features=1024, out_features=1024, bias=True)
          )
          (ln_1): LayerNorm((1024,), eps=1e-05, elementwise_affine=True)
          (mlp): Sequential(
            (c_fc): Linear(in_features=1024, out_features=4096, bias=True)
            (gelu): QuickGELU()
            (c_proj): Linear(in_features=4096, out_features=1024, bias=True)
          )
          (ln_2): LayerNorm((1024,), eps=1e-05, elementwise_affine=True)
        )
        (6): ResidualAttentionBlock(
          (attn): MultiheadAttention(
            (out_proj): NonDynamicallyQuantizableLinear(in_features=1024, out_features=1024, bias=True)
          )
          (ln_1): LayerNorm((1024,), eps=1e-05, elementwise_affine=True)
          (mlp): Sequential(
            (c_fc): Linear(in_features=1024, out_features=4096, bias=True)
            (gelu): QuickGELU()
            (c_proj): Linear(in_features=4096, out_features=1024, bias=True)
          )
          (ln_2): LayerNorm((1024,), eps=1e-05, elementwise_affine=True)
        )
        (7): ResidualAttentionBlock(
          (attn): MultiheadAttention(
            (out_proj): NonDynamicallyQuantizableLinear(in_features=1024, out_features=1024, bias=True)
          )
          (ln_1): LayerNorm((1024,), eps=1e-05, elementwise_affine=True)
          (mlp): Sequential(
            (c_fc): Linear(in_features=1024, out_features=4096, bias=True)
            (gelu): QuickGELU()
            (c_proj): Linear(in_features=4096, out_features=1024, bias=True)
          )
          (ln_2): LayerNorm((1024,), eps=1e-05, elementwise_affine=True)
        )
        (8): ResidualAttentionBlock(
          (attn): MultiheadAttention(
            (out_proj): NonDynamicallyQuantizableLinear(in_features=1024, out_features=1024, bias=True)
          )
          (ln_1): LayerNorm((1024,), eps=1e-05, elementwise_affine=True)
          (mlp): Sequential(
            (c_fc): Linear(in_features=1024, out_features=4096, bias=True)
            (gelu): QuickGELU()
            (c_proj): Linear(in_features=4096, out_features=1024, bias=True)
          )
          (ln_2): LayerNorm((1024,), eps=1e-05, elementwise_affine=True)
        )
        (9): ResidualAttentionBlock(
          (attn): MultiheadAttention(
            (out_proj): NonDynamicallyQuantizableLinear(in_features=1024, out_features=1024, bias=True)
          )
          (ln_1): LayerNorm((1024,), eps=1e-05, elementwise_affine=True)
          (mlp): Sequential(
            (c_fc): Linear(in_features=1024, out_features=4096, bias=True)
            (gelu): QuickGELU()
            (c_proj): Linear(in_features=4096, out_features=1024, bias=True)
          )
          (ln_2): LayerNorm((1024,), eps=1e-05, elementwise_affine=True)
        )
        (10): ResidualAttentionBlock(
          (attn): MultiheadAttention(
            (out_proj): NonDynamicallyQuantizableLinear(in_features=1024, out_features=1024, bias=True)
          )
          (ln_1): LayerNorm((1024,), eps=1e-05, elementwise_affine=True)
          (mlp): Sequential(
            (c_fc): Linear(in_features=1024, out_features=4096, bias=True)
            (gelu): QuickGELU()
            (c_proj): Linear(in_features=4096, out_features=1024, bias=True)
          )
          (ln_2): LayerNorm((1024,), eps=1e-05, elementwise_affine=True)
        )
        (11): ResidualAttentionBlock(
          (attn): MultiheadAttention(
            (out_proj): NonDynamicallyQuantizableLinear(in_features=1024, out_features=1024, bias=True)
          )
          (ln_1): LayerNorm((1024,), eps=1e-05, elementwise_affine=True)
          (mlp): Sequential(
            (c_fc): Linear(in_features=1024, out_features=4096, bias=True)
            (gelu): QuickGELU()
            (c_proj): Linear(in_features=4096, out_features=1024, bias=True)
          )
          (ln_2): LayerNorm((1024,), eps=1e-05, elementwise_affine=True)
        )
        (12): ResidualAttentionBlock(
          (attn): MultiheadAttention(
            (out_proj): NonDynamicallyQuantizableLinear(in_features=1024, out_features=1024, bias=True)
          )
          (ln_1): LayerNorm((1024,), eps=1e-05, elementwise_affine=True)
          (mlp): Sequential(
            (c_fc): Linear(in_features=1024, out_features=4096, bias=True)
            (gelu): QuickGELU()
            (c_proj): Linear(in_features=4096, out_features=1024, bias=True)
          )
          (ln_2): LayerNorm((1024,), eps=1e-05, elementwise_affine=True)
        )
        (13): ResidualAttentionBlock(
          (attn): MultiheadAttention(
            (out_proj): NonDynamicallyQuantizableLinear(in_features=1024, out_features=1024, bias=True)
          )
          (ln_1): LayerNorm((1024,), eps=1e-05, elementwise_affine=True)
          (mlp): Sequential(
            (c_fc): Linear(in_features=1024, out_features=4096, bias=True)
            (gelu): QuickGELU()
            (c_proj): Linear(in_features=4096, out_features=1024, bias=True)
          )
          (ln_2): LayerNorm((1024,), eps=1e-05, elementwise_affine=True)
        )
        (14): ResidualAttentionBlock(
          (attn): MultiheadAttention(
            (out_proj): NonDynamicallyQuantizableLinear(in_features=1024, out_features=1024, bias=True)
          )
          (ln_1): LayerNorm((1024,), eps=1e-05, elementwise_affine=True)
          (mlp): Sequential(
            (c_fc): Linear(in_features=1024, out_features=4096, bias=True)
            (gelu): QuickGELU()
            (c_proj): Linear(in_features=4096, out_features=1024, bias=True)
          )
          (ln_2): LayerNorm((1024,), eps=1e-05, elementwise_affine=True)
        )
        (15): ResidualAttentionBlock(
          (attn): MultiheadAttention(
            (out_proj): NonDynamicallyQuantizableLinear(in_features=1024, out_features=1024, bias=True)
          )
          (ln_1): LayerNorm((1024,), eps=1e-05, elementwise_affine=True)
          (mlp): Sequential(
            (c_fc): Linear(in_features=1024, out_features=4096, bias=True)
            (gelu): QuickGELU()
            (c_proj): Linear(in_features=4096, out_features=1024, bias=True)
          )
          (ln_2): LayerNorm((1024,), eps=1e-05, elementwise_affine=True)
        )
        (16): ResidualAttentionBlock(
          (attn): MultiheadAttention(
            (out_proj): NonDynamicallyQuantizableLinear(in_features=1024, out_features=1024, bias=True)
          )
          (ln_1): LayerNorm((1024,), eps=1e-05, elementwise_affine=True)
          (mlp): Sequential(
            (c_fc): Linear(in_features=1024, out_features=4096, bias=True)
            (gelu): QuickGELU()
            (c_proj): Linear(in_features=4096, out_features=1024, bias=True)
          )
          (ln_2): LayerNorm((1024,), eps=1e-05, elementwise_affine=True)
        )
        (17): ResidualAttentionBlock(
          (attn): MultiheadAttention(
            (out_proj): NonDynamicallyQuantizableLinear(in_features=1024, out_features=1024, bias=True)
          )
          (ln_1): LayerNorm((1024,), eps=1e-05, elementwise_affine=True)
          (mlp): Sequential(
            (c_fc): Linear(in_features=1024, out_features=4096, bias=True)
            (gelu): QuickGELU()
            (c_proj): Linear(in_features=4096, out_features=1024, bias=True)
          )
          (ln_2): LayerNorm((1024,), eps=1e-05, elementwise_affine=True)
        )
        (18): ResidualAttentionBlock(
          (attn): MultiheadAttention(
            (out_proj): NonDynamicallyQuantizableLinear(in_features=1024, out_features=1024, bias=True)
          )
          (ln_1): LayerNorm((1024,), eps=1e-05, elementwise_affine=True)
          (mlp): Sequential(
            (c_fc): Linear(in_features=1024, out_features=4096, bias=True)
            (gelu): QuickGELU()
            (c_proj): Linear(in_features=4096, out_features=1024, bias=True)
          )
          (ln_2): LayerNorm((1024,), eps=1e-05, elementwise_affine=True)
        )
        (19): ResidualAttentionBlock(
          (attn): MultiheadAttention(
            (out_proj): NonDynamicallyQuantizableLinear(in_features=1024, out_features=1024, bias=True)
          )
          (ln_1): LayerNorm((1024,), eps=1e-05, elementwise_affine=True)
          (mlp): Sequential(
            (c_fc): Linear(in_features=1024, out_features=4096, bias=True)
            (gelu): QuickGELU()
            (c_proj): Linear(in_features=4096, out_features=1024, bias=True)
          )
          (ln_2): LayerNorm((1024,), eps=1e-05, elementwise_affine=True)
        )
        (20): ResidualAttentionBlock(
          (attn): MultiheadAttention(
            (out_proj): NonDynamicallyQuantizableLinear(in_features=1024, out_features=1024, bias=True)
          )
          (ln_1): LayerNorm((1024,), eps=1e-05, elementwise_affine=True)
          (mlp): Sequential(
            (c_fc): Linear(in_features=1024, out_features=4096, bias=True)
            (gelu): QuickGELU()
            (c_proj): Linear(in_features=4096, out_features=1024, bias=True)
          )
          (ln_2): LayerNorm((1024,), eps=1e-05, elementwise_affine=True)
        )
        (21): ResidualAttentionBlock(
          (attn): MultiheadAttention(
            (out_proj): NonDynamicallyQuantizableLinear(in_features=1024, out_features=1024, bias=True)
          )
          (ln_1): LayerNorm((1024,), eps=1e-05, elementwise_affine=True)
          (mlp): Sequential(
            (c_fc): Linear(in_features=1024, out_features=4096, bias=True)
            (gelu): QuickGELU()
            (c_proj): Linear(in_features=4096, out_features=1024, bias=True)
          )
          (ln_2): LayerNorm((1024,), eps=1e-05, elementwise_affine=True)
        )
        (22): ResidualAttentionBlock(
          (attn): MultiheadAttention(
            (out_proj): NonDynamicallyQuantizableLinear(in_features=1024, out_features=1024, bias=True)
          )
          (ln_1): LayerNorm((1024,), eps=1e-05, elementwise_affine=True)
          (mlp): Sequential(
            (c_fc): Linear(in_features=1024, out_features=4096, bias=True)
            (gelu): QuickGELU()
            (c_proj): Linear(in_features=4096, out_features=1024, bias=True)
          )
          (ln_2): LayerNorm((1024,), eps=1e-05, elementwise_affine=True)
        )
      )
    )
  )
  (ln_vision): LayerNorm((1024,), eps=1e-05, elementwise_affine=True)
  (Qformer): BertLMHeadModel(
    (bert): BertModel(
      (embeddings): BertEmbeddings(
        (word_embeddings): Embedding(30523, 768)
        (position_embeddings): Embedding(512, 768)
        (LayerNorm): LayerNorm((768,), eps=1e-12, elementwise_affine=True)
        (dropout): Dropout(p=0.1, inplace=False)
      )
      (encoder): BertEncoder(
        (layer): ModuleList(
          (0-11): 12 x BertLayer(
            (attention): BertAttention(
              (self): BertSelfAttention(
                (query): Linear(in_features=768, out_features=768, bias=True)
                (key): Linear(in_features=768, out_features=768, bias=True)
                (value): Linear(in_features=768, out_features=768, bias=True)
                (dropout): Dropout(p=0.1, inplace=False)
              )
              (output): BertSelfOutput(
                (dense): Linear(in_features=768, out_features=768, bias=True)
                (LayerNorm): LayerNorm((768,), eps=1e-12, elementwise_affine=True)
                (dropout): Dropout(p=0.1, inplace=False)
              )
            )
            (crossattention): BertAttention(
              (self): BertSelfAttention(
                (query): Linear(in_features=768, out_features=768, bias=True)
                (key): Linear(in_features=1024, out_features=768, bias=True)
                (value): Linear(in_features=1024, out_features=768, bias=True)
                (dropout): Dropout(p=0.1, inplace=False)
              )
              (output): BertSelfOutput(
                (dense): Linear(in_features=768, out_features=768, bias=True)
                (LayerNorm): LayerNorm((768,), eps=1e-12, elementwise_affine=True)
                (dropout): Dropout(p=0.1, inplace=False)
              )
            )
            (intermediate): BertIntermediate(
              (dense): Linear(in_features=768, out_features=3072, bias=True)
              (intermediate_act_fn): GELUActivation()
            )
            (output): BertOutput(
              (dense): Linear(in_features=3072, out_features=768, bias=True)
              (LayerNorm): LayerNorm((768,), eps=1e-12, elementwise_affine=True)
              (dropout): Dropout(p=0.1, inplace=False)
            )
            (intermediate_query): BertIntermediate(
              (dense): Linear(in_features=768, out_features=3072, bias=True)
              (intermediate_act_fn): GELUActivation()
            )
            (output_query): BertOutput(
              (dense): Linear(in_features=3072, out_features=768, bias=True)
              (LayerNorm): LayerNorm((768,), eps=1e-12, elementwise_affine=True)
              (dropout): Dropout(p=0.1, inplace=False)
            )
          )
        )
      )
    )
    (cls): BertOnlyMLMHead(
      (predictions): BertLMPredictionHead(
        (transform): BertPredictionHeadTransform(
          (dense): Linear(in_features=768, out_features=768, bias=True)
          (transform_act_fn): GELUActivation()
          (LayerNorm): LayerNorm((768,), eps=1e-12, elementwise_affine=True)
        )
        (decoder): Linear(in_features=768, out_features=30523, bias=True)
      )
    )
  )
  (vision_proj): Linear(in_features=768, out_features=256, bias=True)
  (text_proj): Linear(in_features=768, out_features=256, bias=True)
  (itm_head): Linear(in_features=768, out_features=2, bias=True)
), ProjLayer(
  (dense_in): Linear(in_features=768, out_features=1024, bias=True)
  (dense1): Linear(in_features=1024, out_features=3072, bias=True)
  (act_fn): QuickGELUActivation()
  (dense2): Linear(in_features=3072, out_features=1024, bias=True)
  (dropout): Dropout(p=0.1, inplace=False)
  (LayerNorm): LayerNorm((1024,), eps=1e-12, elementwise_affine=True)
)]
